models/checkpoint.pth (torch, 13675 bytes, 20 tensors)

conv1.weight f4 [4, 1, 3, 3]
0	0xbd5d442d	-0.054020096
1	0x3e1fa879	0.15591611
2	0xbd201608	-0.03908351
3	0x3e1a5bd7	0.15074097
4	0xbe1c6920	-0.15274477
5	0x3e4e3226	0.20136318
6	0xbec44c0b	-0.38339266
7	0xbdd0b0b8	-0.101899564
8	0x3e57fed9	0.2109331
9	0x3d501c69	0.050808344
10	0xbc82eeeb	-0.015983066
11	0xbe56da2f	-0.20981668
12	0x3e5376fe	0.2065086
13	0xbe5a3da1	-0.21312572
14	0x3e1b0669	0.15139164
15	0x3daa8aa6	0.08327226
16	0x3e1d498b	0.15360086
17	0x3c92d364	0.017923065
18	0x3d5a3290	0.053270876
19	0x3e6b0b7f	0.22953604
20	0x3e495af1	0.19663598
21	0x3e416e45	0.1888972
22	0x3e7075a5	0.23482378
23	0x3e6bab5e	0.2301459
24	0x3d66ec3f	0.056377646
25	0x3e20b17e	0.15692708
26	0x3e67b776	0.22628579
27	0xbea3a505	-0.31961837
28	0xbe227c76	-0.1586779
29	0xbd915950	-0.07097113
30	0xbe14b408	-0.14521801
31	0x3e977203	0.29579172
32	0x3df7abfa	0.12093349
33	0xbdca816b	-0.09887966
34	0xbe6ad14b	-0.22931401
35	0xbd705be2	-0.058681376

conv1.bias f4 [4]
0	0xbe2bdc37	-0.16783224
1	0x3df13cce	0.11779176
2	0x3e32a40d	0.17445393
3	0xbdfa6fb3	-0.12228336

bn1.weight f4 [4]
0	0x3f6fa477	0.9361033
1	0x3f2fd393	0.6868221
2	0x3f982d4a	1.1888821
3	0x3f7574ba	0.95881236

bn1.bias f4 [4]
0	0xbdb0c2be	-0.08630894
1	0x3d736c2d	0.059429336
2	0x3e0538ce	0.1300995
3	0xbb2d7919	-0.0026469885

bn1.running_mean f4 [4]
0	0x344c0414	1.9000464e-07
1	0x3df0664a	0.1173826
2	0x3e366bea	0.17814603
3	0x3543a263	7.2879465e-07

bn1.running_var f4 [4]
0	0x3230f754	1.0300784e-08
1	0x36d82161	6.4411875e-06
2	0x3896bfe6	7.188301e-05
3	0x34024f39	1.2136015e-07

conv2.weight f4 [8, 4, 3, 3]
0	0x3d8bf369	0.06833536
1	0xbe512c01	-0.20426942
2	0x3db4d80f	0.088302724
3	0xbdef825d	-0.11694787
4	0xbde189b7	-0.11012595
5	0xbe3c506b	-0.18390052
6	0x3dea7b17	0.11449259
7	0xbcf2795b	-0.029598882
8	0xbc1c5673	-0.0095420955
9	0x3cc4cac8	0.024022475
10	0x3e3c9164	0.18414837
11	0xbb9fd19e	-0.0048772832
12	0xbc17524b	-0.009235929
13	0x3d3f792d	0.04674642
14	0xbccc5018	-0.024940535
15	0x3cbc25cc	0.022967242
16	0x3e3f2429	0.18666138
17	0xbd7fdea7	-0.062468197
18	0xbde13b87	-0.10997682
19	0xbd339755	-0.043845493
20	0x3e590cc4	0.21196276
21	0xbb9f530a	-0.004862194
22	0x3e70d0d2	0.23517159
23	0x3dafc0c1	0.08581687
24	0x3decc9a4	0.115618974
25	0xbdd60321	-0.104498155
26	0xbe726b80	-0.2367382
27	0xba9c7abc	-0.0011938433
28	0xbda43aa6	-0.08018999
29	0x3d8fb14d	0.07016239
30	0xbe52f307	-0.2060052
31	0xbe181fb2	-0.14855841
32	0xbd761651	-0.060079876
33	0x3d4f6103	0.050629627
34	0x3cf3d7c3	0.02976597
35	0xbdcd1a27	-0.10014754
36	0xbe27f4cc	-0.16401976
37	0xbdbc891f	-0.09205841
38	0xbe8955e5	-0.26823345
39	0xbe6bc4c7	-0.23024283
40	0xbdfb360f	-0.1226617
41	0xbe696b04	-0.2279473
42	0xbe98f0a5	-0.29871097
43	0xbcdb4c62	-0.02676982
44	0xb814d180	-3.548106e-05
45	0x3c3df0dc	0.01159307
46	0x3e2e5fb7	0.170287
47	0x3d431acc	0.047632977
48	0x3e0793d3	0.13239984
49	0x3d47499f	0.048654195
50	0x3d2b5b28	0.04183498
51	0x3e03db28	0.1287657
52	0xbd47b005	-0.04875185
53	0x3ce55282	0.027993444
54	0x3d7eaac8	0.06217459
55	0x3cfd6882	0.030933622
56	0x3e0e8b94	0.13920432
57	0x3daacb9e	0.08339618
58	0xbcb76cba	-0.022390712
59	0x3b79ec42	0.0038135205
60	0x3d988e72	0.07449044
61	0xbe5e650d	-0.21718235
62	0x3dd0e9af	0.102008216
63	0xbda3e99b	-0.08003541
64	0xbd9a2198	-0.07525939
65	0x3e0d590d	0.13803501
66	0xbcd00000	-0.025390625
67	0xbc713200	-0.014721394
68	0xbe416cae	-0.18889114
69	0xbdbd3206	-0.09238057
70	0xbd300542	-0.042973764
71	0xbd145d66	-0.036221884
72	0xbd94db6d	-0.07268415
73	0x3e20ebe9	0.15714993
74	0x3d49b08d	0.049240638
75	0x3e8e1a72	0.2775455
76	0x3e767e8a	0.24071708
77	0x3d688c0b	0.05677418
78	0xbb451d6e	-0.0030077356
79	0xbb377048	-0.0027990509
80	0x3d2c082e	0.04199999
81	0x3ddc3b96	0.107535526
82	0xbd33246c	-0.043735906
83	0xbd93d233	-0.07217827
84	0xbe4044b7	-0.18776213
85	0xbe2faebb	-0.17156498
86	0xbd1bcd8a	-0.038037814
87	0xbd8df4ee	-0.06931482
88	0x3e44e04f	0.19226192
89	0xbd3386d2	-0.043829747
90	0x3d8fe573	0.07026186
91	0x3ded1d86	0.11577897
92	0x3d094595	0.033513624
93	0xbd2ff2a9	-0.042956028
94	0xbe61e6f2	-0.22060755
95	0xbe4ca771	-0.19985749
96	0xbe535eee	-0.20641682
97	0x3d6592b9	0.05604813
98	0x3e0509fd	0.12992091
99	0xbdce959b	-0.10087129
100	0xbd9b1727	-0.07572775
101	0xbca829e5	-0.02052779
102	0x3c857157	0.016289396
103	0xbd57da40	-0.052698374
104	0xbda145ba	-0.078746274
105	0x3e54faa2	0.20798734
106	0xbd8a1bc5	-0.06743578
107	0x3db80b84	0.089865714
108	0x3d07147f	0.03297853
109	0xbdf86394	-0.12128368
110	0x3dea9574	0.11454287
111	0xbd736732	-0.059424587
112	0xbe31e44b	-0.17372243
113	0xbe113eae	-0.14184067
114	0xbe513c8d	-0.20433255
115	0xbcffaaa0	-0.03120929
116	0xbd4faa7d	-0.0506997
117	0xbda2c59e	-0.07947849
118	0xbd0a701a	-0.033798315
119	0x3d135d26	0.035977505
120	0xbdad5b7e	-0.084647164
121	0x3d96d65a	0.07365103
122	0x3ddaf446	0.10691123
123	0x3c27f94e	0.01025231
124	0xbd104c32	-0.035228916
125	0xbe98b413	-0.29824886
126	0x3d734986	0.05939629
127	0xbbe2e870	-0.0069246814
128	0x3d03f162	0.032212622
129	0xbdd445a0	-0.103648424
130	0x3dd2f8d6	0.10301368
131	0x3e2d8054	0.16943485
132	0xbe217d3b	-0.15770428
133	0xbe27ce50	-0.16387296
134	0xbe36c4be	-0.17848489
135	0xbd5386ab	-0.0516421
136	0x3d4aa2f9	0.04947183
137	0x3d1b5369	0.037921343
138	0xbdf9a13e	-0.12188958
139	0xbdda1e68	-0.10650331
140	0xbddd2b09	-0.10799224
141	0xbe06d4dc	-0.13167137
142	0x3a9410f2	0.0011296554
143	0x3e1ab54f	0.15108226
144	0xbd57e7ec	-0.052711412
145	0xbe13714e	-0.14398691
146	0x3d444177	0.047913995
147	0x3d9fa6c7	0.07795482
148	0xbdd80d96	-0.10549466
149	0xbdfaf7ca	-0.12254293
150	0xbdd0a9ee	-0.101886615
151	0xbe008a89	-0.12552847
152	0x3dc2cb25	0.09511403
153	0xbdd8f151	-0.105929025
154	0xbcdc7c39	-0.026914703
155	0xbc360a71	-0.011110888
156	0xbd5e346d	-0.054249216
157	0xbe0cc7df	-0.1374812
158	0x3c57874c	0.013154816
159	0xbd9de05b	-0.07708808
160	0xbdb71fbb	-0.08941599
161	0xbde3e90d	-0.11128435
162	0x3e027f75	0.12743933
163	0x3e553dbe	0.20824334
164	0x3e0edc8a	0.13951316
165	0xbcef970f	-0.029246835
166	0x3dbd818b	0.09253224
167	0x3e3dfd61	0.18553688
168	0x3dd283a4	0.10279015
169	0x3d6589d6	0.056039654
170	0x3e56f690	0.20992494
171	0x3c6069fd	0.013697145
172	0x3c0d80d3	0.008636671
173	0x3dec24cb	0.11530455
174	0x3c171315	0.009220858
175	0xbde3912c	-0.11111674
176	0xbe2d3b61	-0.16917183
177	0xbcf012ed	-0.0293059
178	0x3e15ed7f	0.14641379
179	0x3d4d14d3	0.050068688
180	0x3e2579e1	0.16159774
181	0xbdf663bc	-0.120307416
182	0x3d9ee339	0.07758183
183	0x3e093a73	0.13401203
184	0xbda007b5	-0.0781397
185	0xbd8e2f1b	-0.069425784
186	0xbda6a7b8	-0.081374586
187	0xbe0f2557	-0.13979088
188	0xbdccb04f	-0.09994566
189	0xbd864c86	-0.065575644
190	0xbe2558cb	-0.16147153
191	0xbdca30d1	-0.09872592
192	0x3c46425b	0.012100781
193	0x3c4ddfb1	0.012565539
194	0xbd857b8a	-0.06517704
195	0x3d28916a	0.041154303
196	0x3da034f4	0.078226
197	0x3e75147e	0.23933598
198	0xbdc5ec2e	-0.09664188
199	0x3bfc28aa	0.007695277
200	0xbe155177	-0.14581858
201	0x3d96593f	0.07341241
202	0xbcd077cf	-0.025447754
203	0xbda8c706	-0.08241086
204	0x3dea840a	0.11450966
205	0x3c3ac7b8	0.011400156
206	0x3e6e6c23	0.23283438
207	0x3e7f9b84	0.24961668
208	0xbe11d114	-0.14239913
209	0x3da80572	0.082041636
210	0xbddbca87	-0.107319884
211	0x3e698149	0.22803225
212	0xbe030909	-0.12796415
213	0xbdbc8f94	-0.09207073
214	0xbe434cdf	-0.19072293
215	0xbd6e3c57	-0.058163013
216	0xbc7bf516	-0.015378257
217	0x3dc1efb7	0.0946955
218	0x3da4d9b2	0.080493346
219	0x3e011e30	0.12609172
220	0x3dcab4e7	0.09897786
221	0x3d609ffc	0.054840073
222	0xbe07fe51	-0.13280608
223	0xbc0d3223	-0.008617911
224	0xbdaf8c05	-0.085716285
225	0x3c78665b	0.015161122
226	0xbdd5b9f8	-0.10435861
227	0x3d143b76	0.03618952
228	0x3d9df87b	0.077134095
229	0xbe4f6e6b	-0.20256965
230	0xbcef42e0	-0.029206693
231	0x3d28cf27	0.04121318
232	0xbd8ef296	-0.06979863
233	0xbba4d6a6	-0.005030471
234	0x3c66f359	0.014096105
235	0xbe9e0cd9	-0.30869177
236	0x3cf4d6e5	0.029887626
237	0xbdb73a2f	-0.089466445
238	0xbd38575f	-0.0450052
239	0x3d6a8511	0.05725581
240	0xbe1bcaf7	-0.15214144
241	0x3d7626ed	0.060095716
242	0x3dd443c7	0.1036449
243	0x3d2a8721	0.041632775
244	0x3d8ea852	0.06965698
245	0xbceae01f	-0.028671322
246	0xbda450ac	-0.080231994
247	0x3d9aadaa	0.07552655
248	0xbd9c50b0	-0.076325774
249	0x3e0b2537	0.13588415
250	0x3e1a7e42	0.15087226
251	0xbdcbc2e5	-0.099492826
252	0xbbd9ca2e	-0.006646416
253	0xbe22137b	-0.15827744
254	0xbe276f7d	-0.16351123
255	0xbd28da49	-0.041223798

conv2.bias f4 [8]
0	0xbdf7a561	-0.120920904
1	0x3dff1bf0	0.124565005
2	0xbd026fe6	-0.031844996
3	0xbc2f51b5	-0.010700633
4	0x3de4b61e	0.111675486
5	0xbd3b33e8	-0.0457038
6	0xbe37479f	-0.17898415
7	0x3e585be8	0.2112881

bn2.weight f4 [8]
0	0x3f7eb8a7	0.9950051
1	0x3f54cda4	0.8312628
2	0x3f63a153	0.88918036
3	0x3f7cdf91	0.98778635
4	0x3f881eba	1.0634377
5	0x3f8145de	1.0099447
6	0x3f709462	0.93976414
7	0x3f6feb6d	0.93718606

bn2.bias f4 [8]
0	0x3e83e182	0.25757986
1	0xbd87e3db	-0.06635257
2	0xbcd0c463	-0.02548427
3	0x3d936108	0.071962416
4	0x3e3c7884	0.18405348
5	0xbe07e8cc	-0.13272399
6	0x3e83bab5	0.25728384
7	0x3e0aa7b5	0.13540538

bn2.running_mean f4 [8]
0	0x3eb094aa	0.34488422
1	0x3f0633bc	0.5242269
2	0x3e558001	0.20849611
3	0x3e8dbd9f	0.27683732
4	0x3f33dfcc	0.7026336
5	0x3ea6592a	0.32489902
6	0x3e1c63e5	0.15272482
7	0x3f29b78b	0.6629569

bn2.running_var f4 [8]
0	0x3e522d2c	0.20525044
1	0x3e2493bc	0.16071981
2	0x3d51696e	0.051125936
3	0x3d9e9edd	0.077451445
4	0x3f2797c2	0.6546594
5	0x3e37233c	0.17884535
6	0x3d2d1104	0.042252555
7	0x3e616484	0.22011

conv3.weight f4 [16, 8, 3, 3]
0	0x3cd12319	0.025529431
1	0x3c9284b8	0.01788555
2	0xba9f68ef	-0.001216201
3	0xbd8f0341	-0.069830425
4	0xbc9f2bf5	-0.01943014
5	0x3b321503	0.0027173168
6	0x3e398f1f	0.18121003
7	0x3df150fb	0.11783024
8	0x3dd4d4ba	0.10392137
9	0xbcf82d21	-0.030294957
10	0x3c319a65	0.010840033
11	0x3b74586b	0.0037284147
12	0x3cdfdc20	0.027326643
13	0xbd8a903b	-0.06765791
14	0xbe4aaaac	-0.19791669
15	0xbd6898ac	-0.056786224
16	0x3df23ec1	0.118283756
17	0x3d3b9645	0.045797605
18	0x3cae116e	0.021248545
19	0x3d379cf3	0.044827413
20	0xbd908bc0	-0.07057905
21	0x3cdf7810	0.02727893
22	0x3b472bc1	0.003039107
23	0xbd2df83c	-0.042473063
24	0x3c1f8db7	0.009738377
25	0xbd8b5031	-0.06802405
26	0xbdd32daa	-0.10311444
27	0xbd664bf1	-0.056224767
28	0x3ac7b55f	0.0015236548
29	0xbd8c9a59	-0.06865377
30	0x3d7adc0d	0.061245013
31	0xbd2e7cf3	-0.04259963
32	0xbe880295	-0.2656447
33	0xbe053813	-0.13009672
34	0xbe52c960	-0.20584631
35	0xbca75a88	-0.02042891
36	0xbcdceeb5	-0.026969293
37	0x3d804f09	0.06265075
38	0x3da95732	0.08268584
39	0x3be4c9ec	0.006982079
40	0xbe291d8a	-0.16515175
41	0xbde31d09	-0.110895224
42	0x3d52614b	0.051362317
43	0x3cf07264	0.02935142
44	0xbe0122da	-0.12610951
45	0xbc044906	-0.008074051
46	0xbda2d4d0	-0.07950747
47	0xbdb47881	-0.08812047
48	0xbda9055f	-0.082529776
49	0x3d698483	0.05701114
50	0xbe4098e2	-0.1880832
51	0xbd161615	-0.036642153
52	0xbe30481a	-0.17215005
53	0x3ec1c738	0.37847304
54	0x3c8e03cf	0.0173358
55	0x3d9af37e	0.07565974
56	0x3e4336e4	0.19063908
57	0x3d4130b2	0.04716558
58	0xbd884d50	-0.06655371
59	0x3da4c885	0.080460586
60	0x3e15aa39	0.14615716
61	0xbe0da620	-0.13832903
62	0x3b4ba7c9	0.003107535
63	0x3d2abeae	0.041685753
64	0xbcad43ae	-0.021150436
65	0xbcd94d48	-0.026526108
66	0xbc5f4fba	-0.013629848
67	0x3cc32e38	0.02382575
68	0xbdac19ad	-0.08403335
69	0xbbc0a395	-0.0058788755
70	0xbcb3b647	-0.021937503
71	0x3d918008	0.07104498
72	0x3d6d4de7	0.05793562
73	0xbb7d2abb	-0.0038630206
74	0x3de15e54	0.1100432
75	0x3e08633e	0.13319108
76	0x3c7a2cbb	0.015269454
77	0xbda5c63e	-0.08094452
78	0xbd9742d4	-0.07385793
79	0xbc75b7f6	-0.014997473
80	0xbddc735a	-0.10764189
81	0x3cfcd2f7	0.030862315
82	0x3cce156d	0.025156701
83	0x3d9bea11	0.07613004
84	0x3dc88e69	0.097927876
85	0x3d30bc03	0.043148052
86	0x3dde3b0c	0.10851106
87	0x3c86f2aa	0.016473133
88	0x3df2c76b	0.11854442
89	0xbd049615	-0.032369692
90	0x3d8d4421	0.0689776
91	0x3d8a13bf	0.067420475
92	0x3e46ed1d	0.19426389
93	0xbe47956a	-0.1949059
94	0x3d3cba72	0.046076246
95	0x3d2487a5	0.040168423
96	0xbe89d193	-0.26917705
97	0x3d059704	0.032614723
98	0xbc9900f9	-0.018677222
99	0xbdd2fe22	-0.10302378
100	0xbe2598c7	-0.16171561
101	0x3d89d826	0.0673068
102	0xbe3a9136	-0.18219456
103	0xbda2d443	-0.07950642
104	0x3d08bbde	0.03338229
105	0xbd86452f	-0.065561645
106	0x3b87c480	0.0041432977
107	0xbc58ade6	-0.013225054
108	0x3c56aa5a	0.013102138
109	0xba851f15	-0.0010156358
110	0xbe6f0b83	-0.23344235
111	0x3c291433	0.010319757
112	0xbdb33791	-0.08750833
113	0xbd41c942	-0.047311075
114	0x3d02fff1	0.031982366
115	0xbe05befc	-0.13061136
116	0x3b66ec8d	0.003523621
117	0xbd676f18	-0.05650243
118	0xbe38ef4a	-0.18060032
119	0x3def2c76	0.11678402
120	0xbddf7b4b	-0.10912188
121	0xbd8edd09	-0.06975753
122	0x3db5a245	0.08868841
123	0xbe47e75c	-0.1952185
124	0x3ddb0281	0.10693837
125	0x3c41a0b3	0.011818099
126	0x3e1c0b12	0.15238598
127	0x3dd9595b	0.10612746
128	0xbcc64424	-0.024202414
129	0x3bf8b933	0.007590437
130	0x3d0f5ff7	0.03500363
131	0xbdc81dc2	-0.09771301
132	0x3da43906	0.08018689
133	0xbc887b73	-0.016660428
134	0x3c1a0c5d	0.009402362
135	0xbddd169a	-0.107953265
136	0xbd0f735a	-0.035022117
137	0xbdf5d3f4	-0.120033175
138	0xbc2db124	-0.010601316
139	0xbd07bcd6	-0.033139072
140	0x3db81189	0.089877196
141	0xbd07d76f	-0.033164438
142	0xbd593478	-0.053028554
143	0x3e792171	0.24329163
144	0xbda96b9e	-0.082724795
145	0xbb153ce7	-0.0022771896
146	0xbbdefd06	-0.006805065
147	0xbca29ae6	-0.019849252
148	0xbd8890bf	-0.06668233
149	0x3e0dcf12	0.13848522
150	0xbd299c72	-0.041408964
151	0xbd2a7e46	-0.04162433
152	0xbcb90ee5	-0.02259011
153	0x3d17d78c	0.037070796
154	0xbe2d66c0	-0.16933727
155	0x3d584505	0.052800197
156	0xbc3157b9	-0.010824137
157	0x3d0acb62	0.033885367
158	0xbd95aec2	-0.07308723
159	0xbc7b2850	-0.0153294355
160	0xbde4e023	-0.11175563
161	0xbd338332	-0.04382629
162	0x3db41b63	0.08794286
163	0xbda03491	-0.07822526
164	0xbc51845a	-0.012787903
165	0xbd2a6971	-0.041604463
166	0x3d435a15	0.04769333
167	0x3c0218b8	0.007940464
168	0xbddfefb1	-0.109343894
169	0x3dc75441	0.09732867
170	0xbd642992	-0.055703707
171	0x3d7e8a7d	0.06214379
172	0xbd60cb8d	-0.05488162
173	0xbdb12b34	-0.086508185
174	0xbe041ba6	-0.12901172
175	0x3da1cc98	0.07900351
176	0xbb9d26be	-0.004795878
177	0x3d20d14c	0.0392621
178	0xbe18cd73	-0.14922123
179	0xbe289546	-0.16463193
180	0x3d97e7a1	0.074172266
181	0xbdc7f54b	-0.09763583
182	0x3c548af0	0.012972578
183	0x3d423a6e	0.047419004
184	0xbdc16fbb	-0.09445139
185	0x3e47b500	0.1950264
186	0xbdce9789	-0.10087497
187	0x3c9b66ad	0.018969858
188	0x3d959e81	0.07305623
189	0x398be518	0.00026682834
190	0x3daff2a1	0.085912
191	0xbd7b42a6	-0.061342858
192	0xbb8f7117	-0.004377495
193	0xbe27fa1e	-0.16404006
194	0xbdff66cb	-0.12470778
195	0xbe109218	-0.1411823
196	0x3b8b5172	0.0042516524
197	0xbe8995f8	-0.2687223
198	0xbe07cef1	-0.13262536
199	0xbdcbf3ef	-0.09958636
200	0xbe2f26a3	-0.17104582
201	0xbd9b1852	-0.07572998
202	0xbd425949	-0.04744843
203	0xbd10b5d1	-0.035329644
204	0x3b94f082	0.0045452723
205	0x3e146676	0.14492211
206	0x3d9fec62	0.07808758
207	0xbd6759ef	-0.05648225
208	0xbe8c0cf1	-0.27353624
209	0x3c9d0b82	0.019170526
210	0x3d94e06b	0.07269367
211	0xbd00eb8d	-0.03147464
212	0x3e08d837	0.1336373
213	0xbcaf7dfb	-0.021422377
214	0xbe130023	-0.14355521
215	0xb9ef3c02	-0.00045630342
216	0xbd8e0ca6	-0.06936006
217	0xbdf61683	-0.120160125
218	0x3d8c74b1	0.068581946
219	0xbded5a55	-0.11589495
220	0xbc4b9b75	-0.012427201
221	0x3ccb777d	0.02483725
222	0xbd936afc	-0.0719814
223	0x3e168b75	0.14701636
224	0xbe04b0f9	-0.12958135
225	0x3cd45827	0.02592094
226	0xbd58ec4a	-0.052959718
227	0xbd9ed4ee	-0.07755457
228	0xbd4a232f	-0.04934996
229	0xbd0ffa0f	-0.035150584
230	0xbe5c1d60	-0.2149558
231	0xbdb06edf	-0.08614897
232	0xbd454ab3	-0.04816694
233	0xbdeefeaf	-0.11669671
234	0x3d1627c5	0.03665902
235	0xbbcaa879	-0.0061846343
236	0x3c7f3098	0.0155755505
237	0xbce08e1b	-0.027411511
238	0x3da1157d	0.07865427
239	0x3d930e6c	0.07180485
240	0x3e2dec58	0.16984689
241	0xbd296e24	-0.041364804
242	0xbd86e75a	-0.065870956
243	0x3cc4778d	0.023982788
244	0x3cdde9d2	0.027089033
245	0xbd3bd2af	-0.04585522
246	0xbd89b386	-0.067236945
247	0xbde9fa62	-0.1142471
248	0x3d40cbb4	0.047069266
249	0x3e4d1e2f	0.20031045
250	0x3e5cb6a0	0.21554041
251	0xb96d1e92	-0.0002261347
252	0xbd0044dc	-0.03131567
253	0x3cb2d4ec	0.021830045
254	0x3dabe197	0.08392637
255	0x3d710584	0.05884315

conv3.bias f4 [16]
0	0x3e901121	0.28138068
1	0xbe2c9fd7	-0.16857849
2	0xbdcaa4b3	-0.09894695
3	0x3df353bc	0.118812054
4	0xbdca0dce	-0.09865914
5	0xbe0f03ea	-0.13966337
6	0xbe0c5864	-0.13705593
7	0x3dcb7b53	0.099356316
8	0x3e969d0c	0.29416692
9	0xbcae3104	-0.021263607
10	0xbde7e8cf	-0.113237016
11	0xbe9ceb0f	-0.30648085
12	0xbdd3a4be	-0.103341565
13	0xbd09c700	-0.033637047
14	0x3e1a55f4	0.15071851
15	0xbe38b711	-0.18038584

bn3.weight f4 [16]
0	0x3ff56414	1.9171166
1	0x3fef28c6	1.8684318
2	0x3fd37cd2	1.6522467
3	0x3fe5b29f	1.7945136
4	0x3fda5e82	1.7060091
5	0x3fed17a1	1.8522836
6	0x3fdcde84	1.7255406
7	0x3fd5f1c0	1.6714401
8	0x3feb8a7e	1.840164
9	0x3fddb284	1.7320104
10	0x3ff0e07a	1.8818505
11	0x3fec7571	1.847334
12	0x3fd9faae	1.7029626
13	0x3ff83394	1.939074
14	0x3ff09afb	1.8797296
15	0x3fe7f28e	1.8120897

bn3.bias f4 [16]
0	0xbd97f583	-0.074198745
1	0xbe8f4dba	-0.27988988
2	0x3d69059a	0.056890108
3	0xbdf2f445	-0.11862997
4	0xbe932ef0	-0.28746748
5	0x3dddb955	0.10826365
6	0x3d7e4eb3	0.062086772
7	0x3ea8e00c	0.32983434
8	0xbe9ae0be	-0.3024959
9	0xbe06204e	-0.13098261
10	0x3e496aff	0.19669722
11	0x3e49dc5f	0.19712971
12	0x3d533e15	0.051572878
13	0x3e482281	0.19544412
14	0xbcd37cc4	-0.025816329
15	0x3cce3552	0.02517191

bn3.running_mean f4 [16]
0	0x3f7397ed	0.95153695
1	0x3f096dc9	0.53683144
2	0x3f4ac3b6	0.7920488
3	0x3f55a72b	0.83458203
4	0x3f622d20	0.88350105
5	0x3f36c5ca	0.7139555
6	0x3f249a96	0.6429838
7	0x3f1527d9	0.5826393
8	0x3f86e0c8	1.0537348
9	0x3ef5760f	0.47941634
10	0x3ee00f36	0.43761605
11	0x3ed00673	0.4062992
12	0x3f0db5e5	0.55355674
13	0x3f165d88	0.5873647
14	0x3f30e3e9	0.69097763
15	0x3ef0634d	0.4695076

bn3.running_var f4 [16]
0	0x3ece1498	0.40250087
1	0x3e53aad0	0.20670629
2	0x3ea16680	0.31523514
3	0x3e489584	0.19588286
4	0x3ecab8e1	0.39594176
5	0x3eb685c2	0.35648924
6	0x3e88a3ee	0.26687568
7	0x3e3270cd	0.17425843
8	0x3e9ca927	0.30597803
9	0x3e74bd2a	0.23900285
10	0x3e486d20	0.19572878
11	0x3e719a5f	0.23594044
12	0x3e943120	0.2894373
13	0x3ec7ee8b	0.3904918
14	0x3e5349eb	0.20633666
15	0x3e82ffd4	0.25585806

fc.weight f4 [10, 16]
0	0xbe1caab8	-0.15299499
1	0x3e3dfe22	0.18553975
2	0xbb854a66	-0.004067707
3	0xbf19466e	-0.5987309
4	0x3f077173	0.52907485
5	0x3f48209c	0.7817476
6	0x3da9f46c	0.08298573
7	0x3e066279	0.13123502
8	0x3f3b879d	0.73253804
9	0xbf2a2d98	-0.6647582
10	0xbe82d864	-0.25555718
11	0xbe1f9573	-0.15584354
12	0xbea069eb	-0.3133081
13	0xbeed69e4	-0.4636985
14	0xbf2d1230	-0.67605877
15	0xbef370d3	-0.47547016
16	0x3da90fa1	0.08254934
17	0xbf0a1419	-0.53936917
18	0x3f008fdf	0.5021953
19	0x3ee6c004	0.4506837
20	0x3e9c3297	0.30507347
21	0xbf2cbf21	-0.6747914
22	0xbeb418ff	-0.3517532
23	0xbf459fbd	-0.77196866
24	0x3ebb01bc	0.3652476
25	0x3f04c370	0.51860714
26	0xbe8b5dd4	-0.27220023
27	0xbf08aedd	-0.5339182
28	0xbeefcaea	-0.468345
29	0xbef6ee96	-0.48228902
30	0xbea07c02	-0.3134461
31	0xbe97436c	-0.29543626
32	0x3f4d5460	0.8020687
33	0xbf09fe97	-0.539041
34	0xbeb21f1e	-0.34789366
35	0xbf09939d	-0.53740865
36	0xbf28e1be	-0.65969455
37	0x3f1190fe	0.56861866
38	0xbe5513ee	-0.20808384
39	0xbdf2ecef	-0.11861598
40	0xbe42570b	-0.18978517
41	0x3e6a3c5b	0.22874586
42	0xbeed4c49	-0.46347263
43	0x3e41fe47	0.18944655
44	0x3e9c96ab	0.305837
45	0x3f22b18e	0.63552177
46	0xbf14d1cc	-0.58132625
47	0xbd6baa88	-0.05753568
48	0xbf1d26b1	-0.61387163
49	0xbea04887	-0.31305334
50	0xbe5d7c1b	-0.21629374
51	0x3f027d0e	0.5097207
52	0xbee901b7	-0.4550912
53	0xbeae28bf	-0.34015462
54	0xbee5aece	-0.44859928
55	0x3d853dbc	0.065059155
56	0x3e3b5097	0.18292461
57	0xbdb93d9d	-0.09044955
58	0xbf0eca06	-0.55777013
59	0xbe1ff8f8	-0.15622318
60	0xbebb5175	-0.36585584
61	0x3ef9eab5	0.4881188
62	0xbd7cb70a	-0.061697997
63	0x3f7362e8	0.95072794
64	0x3efdc764	0.49566185
65	0xbdb23319	-0.08701152
66	0xbefc5875	-0.49286237
67	0x3e1ed9de	0.15512797
68	0xbede7066	-0.43445128
69	0xbef7e2b9	-0.48415163
70	0x3f09e11b	0.5385911
71	0xbf022bc6	-0.5084804
72	0x3f1c771e	0.6111926
73	0xbf141d41	-0.5785714
74	0x3dd4d8fb	0.10392948
75	0xbe9a8d60	-0.30185986
76	0x3f127e93	0.57224387
77	0xbf104c67	-0.5636658
78	0x3f34143f	0.70343393
79	0xbf105b8e	-0.563897
80	0xbf1c1f60	-0.60985374
81	0xbdea6081	-0.11444188
82	0xbf07755a	-0.5291344
83	0x3f096488	0.53669024
84	0x3ec8bef5	0.3920819
85	0x3da22cd4	0.079187065
86	0xbc865b2c	-0.016400896
87	0x3f2be597	0.671472
88	0xbf31a9f7	-0.6939997
89	0x3e1ed822	0.15512136
90	0x3d52cb1c	0.05146323
91	0xbebe6532	-0.3718658
92	0x3eda9ca6	0.42697638
93	0xbf5aee80	-0.8552017
94	0xbf2202d8	-0.6328559
95	0x3ee473a7	0.44619486
96	0x3e70e25a	0.23523846
97	0x3f84fa84	1.0388951
98	0xbed39bf1	-0.4132991
99	0xbda9cfd3	-0.082915924
100	0x3f021005	0.50805694
101	0x3e41e8e3	0.18936495
102	0xbef44873	-0.47711524
103	0xbec90224	-0.39259446
104	0xbee4e6c8	-0.44707322
105	0x3efd52fa	0.4947737
106	0xbda6c033	-0.08142128
107	0xbf19c25c	-0.60062194
108	0x3efd14fc	0.49430072
109	0xbf188188	-0.5957265
110	0x3e83def9	0.25756052
111	0x3dc6b308	0.09702116
112	0xbf0535af	-0.5203504
113	0x3df2104d	0.118195154
114	0x3f122005	0.5708011
115	0x3c76f9ce	0.0150742065
116	0xbd6c736a	-0.057727255
117	0xbe8180b4	-0.25293505
118	0x3eb04557	0.34427902
119	0xbe95f7c7	-0.29290602
120	0xbea5944c	-0.32339704
121	0x3e6fa588	0.23402989
122	0xbf0ac22d	-0.5420254
123	0x3f2ab80d	0.6668709
124	0xbe8f9d75	-0.28049818
125	0x3f205e0e	0.62643516
126	0xbe395ff4	-0.1810301
127	0xbf1eb83f	-0.6199989
128	0x3e9aa94a	0.30207282
129	0xbe93e565	-0.28885952
130	0x3e848445	0.25882164
131	0xbf0c059b	-0.54696053
132	0x3d000080	0.031250477
133	0xbdd15b77	-0.10222524
134	0xbf2cd196	-0.675073
135	0x3ec3c82d	0.3823866
136	0xbf054d1e	-0.52070796
137	0xbe96d4d0	-0.29459238
138	0x3f5a0d6c	0.8517673
139	0xbec225a0	-0.3791933
140	0xbe814639	-0.25248888
141	0x3c4eef9e	0.012630371
142	0x3ee1ed0e	0.4412617
143	0xbe0eef3f	-0.13958453
144	0xbf0f449b	-0.5596406
145	0x3ec6c128	0.38819242
146	0x3ed3c26a	0.41359264
147	0x3d44c893	0.048042845
148	0x3d1de4bc	0.038548216
149	0xbdf9febc	-0.1220679
150	0x3f0296ca	0.51011336
151	0x3e74b0d3	0.23895578
152	0x3ecbdd78	0.39817405
153	0xbeb82d0a	-0.35971862
154	0x3e9e36cc	0.30901182
155	0x3f54afa7	0.83080524
156	0x3f032d5d	0.51241094
157	0xbed9ab2b	-0.42513403
158	0x3f0a785d	0.5408991
159	0x3e02c064	0.12768704

fc.bias f4 [10]
0	0x3d8dc08d	0.06921492
1	0xbe199c5f	-0.15001057
2	0x3e8bafa3	0.27282438
3	0x3defd2f7	0.1171016
4	0xbce97043	-0.028495913
5	0xbd1026d4	-0.03519328
6	0xbe12116b	-0.14264457
7	0x3d51021f	0.051027413
8	0x3eac980f	0.33709762
9	0x3e711a7f	0.23545264
